Using TensorFlow backend.
Discriminator model:
____________________________________________________________________________________________________
Layer (type)                     Output Shape          Param #     Connected to                     
====================================================================================================
input_1 (InputLayer)             (None, 64, 64, 3)     0                                            
____________________________________________________________________________________________________
conv2d_1 (Conv2D)                (None, 32, 32, 32)    896         input_1[0][0]                    
____________________________________________________________________________________________________
leaky_re_lu_1 (LeakyReLU)        (None, 32, 32, 32)    0           conv2d_1[0][0]                   
____________________________________________________________________________________________________
dropout_1 (Dropout)              (None, 32, 32, 32)    0           leaky_re_lu_1[0][0]              
____________________________________________________________________________________________________
conv2d_2 (Conv2D)                (None, 32, 32, 64)    18496       dropout_1[0][0]                  
____________________________________________________________________________________________________
leaky_re_lu_2 (LeakyReLU)        (None, 32, 32, 64)    0           conv2d_2[0][0]                   
____________________________________________________________________________________________________
dropout_2 (Dropout)              (None, 32, 32, 64)    0           leaky_re_lu_2[0][0]              
____________________________________________________________________________________________________
conv2d_3 (Conv2D)                (None, 16, 16, 128)   73856       dropout_2[0][0]                  
____________________________________________________________________________________________________
leaky_re_lu_3 (LeakyReLU)        (None, 16, 16, 128)   0           conv2d_3[0][0]                   
____________________________________________________________________________________________________
dropout_3 (Dropout)              (None, 16, 16, 128)   0           leaky_re_lu_3[0][0]              
____________________________________________________________________________________________________
conv2d_4 (Conv2D)                (None, 16, 16, 256)   295168      dropout_3[0][0]                  
____________________________________________________________________________________________________
leaky_re_lu_4 (LeakyReLU)        (None, 16, 16, 256)   0           conv2d_4[0][0]                   
____________________________________________________________________________________________________
dropout_4 (Dropout)              (None, 16, 16, 256)   0           leaky_re_lu_4[0][0]              
____________________________________________________________________________________________________
flatten_1 (Flatten)              (None, 65536)         0           dropout_4[0][0]                  
____________________________________________________________________________________________________
generation (Dense)               (None, 1)             65537       flatten_1[0][0]                  
____________________________________________________________________________________________________
aux_eyes (Dense)                 (None, 12)            786444      flatten_1[0][0]                  
____________________________________________________________________________________________________
aux_hair (Dense)                 (None, 12)            786444      flatten_1[0][0]                  
====================================================================================================
Total params: 2,026,841
Trainable params: 2,026,841
Non-trainable params: 0
____________________________________________________________________________________________________
Combined model:
____________________________________________________________________________________________________
Layer (type)                     Output Shape          Param #     Connected to                     
====================================================================================================
input_2 (InputLayer)             (None, 100)           0                                            
____________________________________________________________________________________________________
input_3 (InputLayer)             (None, 1)             0                                            
____________________________________________________________________________________________________
input_4 (InputLayer)             (None, 1)             0                                            
____________________________________________________________________________________________________
model_2 (Model)                  (None, 64, 64, 3)     4921443     input_2[0][0]                    
                                                                   input_3[0][0]                    
                                                                   input_4[0][0]                    
____________________________________________________________________________________________________
model_1 (Model)                  [(None, 1), (None, 12 2026841     model_2[1][0]                    
…
